…
n\n# 评估性能\ncomplex_train_loss, complex_train_acc = complex_nn.evaluate(X_train_nn, y_train_nn, verbose=0)\ncomplex_val_loss, complex_val_acc = complex_nn.evaluate(X_val, y_val, verbose=0)\n\nprint(f\"复杂网络 - 训练集准确率: {complex_train_acc:.4f}\")\nprint(f\"复杂网络 - 验证集准确率: {complex_val_acc:.4f}\")\n```\n\n::: {.cell-output .cell-output-stdout}\n```\nModel: \"sequential_2\"\n_________________________________________________________________\n Layer (type)                Output Shape              Param #   \n=================================================================\n dense_5 (Dense)             (None, 64)                768       \n                                                                 \n dense_6 (Dense)             (None, 32)                2080      \n                                                                 \n dense_7 (Dense)             (None, 16)                528       \n                                                                 \n dense_8 (Dense)             (None, 8)                 136       \n                                                                 \n dense_9 (Dense)             (None, 1)                 9         \n                                                                 \n=================================================================\nTotal params: 3521 (13.75 KB)\nTrainable params: 3521 (13.75 KB)\nNon-trainable params: 0 (0.00 Byte)\n_________________________________________________________________\n复杂网络 - 训练集准确率: 0.8975\n复杂网络 - 验证集准确率: 0.7989\n```\n:::\n:::\n\n\n绘制复杂网络的学习曲线：\n\n::: 
…
 regularized_train_acc = regularized_nn.evaluate(X_train_nn, y_train_nn, verbose=0)\nregularized_val_loss, regularized_val_acc = regularized_nn.evaluate(X_val, y_val, verbose=0)\n\nprint(f\"正则化网络 - 训练集准确率: {regularized_train_acc:.4f}\")\nprint(f\"正则化网络 - 验证集准确率: {regularized_val_acc:.4f}\")\n```\n\n::: {.cell-output .cell-output-stdout}\n```\nModel: \"sequential_3\"\n_________________________________________________________________\n Layer (type)                Output Shape              Param #   \n=================================================================\n dense_10 (Dense)            (None, 64)                768       \n                                                                 \n batch_normalization (Batch  (None, 64)                256       \n Normalization)                                                  \n                                                                 \n dropout (Dropout)           (None, 64)                0         \n                                                                 \n dense_11 (Dense)            (None, 32)                2080      \n                                                                 \n batch_normalization_1 (Bat  (None, 32)                128       \n chNormalization)                                                \n                                                                 \n dropout_1 (Dropout)         (None, 32)                0         \n                                                                 \n dense_12 (Dense)            (None, 16)                528       \n                                                                 \n batch_normalization_2 (Bat  (None, 16)                64        \n chNormalization)                                                \n                                                                 \n dropout_2 (Dropout)         (None, 16)                0         \n                                                                 \n dense_13 (Dense)            (None, 8)                 136       \n                                                                 \n batch_normalization_3 (Bat  (None, 8)                 32        \n chNormalization)                                                \n                                                                 \n dropout_3 (Dropout)         (None, 8)                 0         \n                                                                 \n dense_14 (Dense)            (None, 1)                 9         \n                                                                 \n=================================================================\nTotal params: 4001 (15.63 KB)\nTrainable params: 3761 (14.69 KB)\nNon-trainable params: 240 (960.00 Byte)\n_________________________________________________________________\n正则化网络 - 训练集准确率: 0.8427\n正则化网络 - 验证集准确率: 0.8101\n```\n:::\n:::\n\n\n绘制正则化网络的学习曲线：\
…
